…
검증 정확도의 정체가 반복되면서 학습률은 추가로 여러 차례 감소했다(예: Epoch 16: 0.0005→0.00025, Epoch 19: 0.00025→0.000125, Epoch 23: 0.000125→6.25e-5, Epoch 25: 6.25e-5→3.125e-5, Epoch 28: 3.125e-5→1.5625e-5). 이러한 단계적 학습률 감소는 큰 개선이 나오지 않는 상황에서 파라미터를 더 세밀하게 조정하여 성능을 ‘조금씩’ 끌어올리는 역할을 한다. 최종적으로 Epoch 30에서 훈련 정확도는 0.9080, 검증 정확도는 0.7578을 기록하며 학습이 마무리되었다.

정리하면, 본 학습 과정은 (1) 초반 빠른 수렴으로 기본 성능 확보 → (2) 중반 검증 성능 정체 발생 → (3) 학습률을 단계적으로 낮추며 미세 조정 → (4) 훈련 성능은 계속 상승하지만 검증 성능은 0.75대에서 제한되는 형태로 진행되었다. 따라서 Baseline CNN은 CIFAR-10에서 준수한 성능(검증 약 0.76)을 보였으나, 후반부 과적합 경향을 줄이기 위해서는 데이터 증강 강화, 정규화(BN), L2 규제, GAP 기반 헤드 등 추가 개선이 필요함을 시사한다.

```text
Model: "baseline_cnn"
┏━━━━━━━━━━━━━━━━━━━━━━━━━━━━━━━━━┳━━━━━━━━━━━━━━━━━━━━━━━━┳━━━━━━━━━━━━━━━┓
┃ Layer (type)                    ┃ Output Shape           ┃       Param # ┃
┡━━━━━━━━━━━━━━━━━━━━━━━━━━━━━━━━━╇━━━━━━━━━━━━━━━━━━━━━━━━╇━━━━━━━━━━━━━━━┩
│ input_layer (InputLayer)        │ (None, 32, 32, 3)      │             0 │
├─────────────────────────────────┼────────────────────────┼───────────────┤
│ conv2d (Conv2D)                 │ (None, 32, 32, 32)     │           896 │
├─────────────────────────────────┼────────────────────────┼───────────────┤
│ max_pooling2d (MaxPooling2D)    │ (None, 16, 16, 32)     │             0 │
├─────────────────────────────────┼────────────────────────┼───────────────┤
│ conv2d_1 (Conv2D)               │ (None, 16, 16, 64)     │        18,496 │
├─────────────────────────────────┼────────────────────────┼───────────────┤
│ max_pooling2d_1 (MaxPooling2D)  │ (None, 8, 8, 64)       │             0 │
├─────────────────────────────────┼────────────────────────┼───────────────┤
│ conv2d_2 (Conv2D)               │ (None, 8, 8, 128)      │        73,856 │
├─────────────────────────────────┼────────────────────────┼───────────────┤
│ max_pooling2d_2 (MaxPooling2D)  │ (None, 4, 4, 128)      │             0 │
├─────────────────────────────────┼────────────────────────┼───────────────┤
│ flatten (Flatten)               │ (None, 2048)           │             0 │
├─────────────────────────────────┼────────────────────────┼───────────────┤
│ dense (Dense)                   │ (None, 128)            │       262,272 │
├─────────────────────────────────┼────────────────────────┼───────────────┤
│ dropout (Dropout)               │ (None, 128)            │             0 │
├─────────────────────────────────┼────────────────────────┼───────────────┤
│ dense_1 (Dense)                 │ (None, 10)             │         1,290 │
└─────────────────────────────────┴────────────────────────┴───────────────┘
 Total params: 356,810 (1.36 MB)
 Trainable params: 356,810 (1.36 MB)
 Non-trainable params: 0 (0.00 B)
Epoch 1/30
313/313 ━━━━━━━━━━━━━━━━━━━━ 109s 336ms/step - accuracy: 0.2787 - loss: 1.9401 - val_accuracy: 0.5203 - val_loss: 1.3502 - learning_rate: 0.0010
Epoch 2/30
(중간 생략)
Epoch 30/30
313/313 ━━━━━━━━━━━━━━━━━━━━ 91s 289ms/step - accuracy: 0.9080 - loss: 0.2692 - val_accuracy: 0.7578 - val_loss: 0.8503 - learning_rate: 1.5625e-05
…
